…
| train_graphs_4ffa3cbe | RUNNING  | 10.120.203.32:374345 | 5.73258 |   3.45205 |        3.60486 | 4.20005 |  3.3061 | 0.030483 | 0.00250723 |      641.192 |     0 | 0.068169 |   0.33936 |  0.308653 | 0.25765 | 0.169004 | 0.754778 | 0.991708 |
+-----------------------+----------+----------------------+---------+-----------+----------------+---------+---------+----------+------------+--------------+-------+----------+-----------+-----------+---------+----------+----------+----------+


[2m[36m(train_graphs pid=374345)[0m GAT(
[2m[36m(train_graphs pid=374345)[0m   (conv1): GATv2Conv(1, 14, heads=13)
[2m[36m(train_graphs pid=374345)[0m   (conv3): SAGEConv(182, 366)
[2m[36m(train_graphs pid=374345)[0m   (norm1): GraphNorm(182)
[2m[36m(train_graphs pid=374345)[0m   (fc1): Linear(in_features=732, out_features=2150, bias=True)
[2m[36m(train_graphs pid=374345)[0m   (fc2): Linear(in_features=2150, out_features=1692, bias=True)
[2m[36m(train_graphs pid=374345)[0m   (fc3): Linear(in_features=1692, out_features=3, bias=True)
[2m[36m(train_graphs pid=374345)[0m )
[2m[36m(train_graphs pid=374390)[0m GAT(
[2m[36m(train_graphs pid=374390)[0m   (conv1): GATv2Conv(1, 22, heads=15)
[2m[36m(train_graphs pid=374390)[0m   (conv3): SAGEConv(330, 274)
[2m[36m(train_graphs pid=374390)[0m   (norm1): GraphNorm(330)
[2m[36m(train_graphs pid=374390)[0m   (fc1): Linear(in_features=548, out_features=628, bias=True)
[2m[36m(train_graphs pid=374390)[0m   (fc2): Linear(in_features=628, out_features=2713, bias=True)
[2m[36m(train_graphs pid=374390)[0m   (fc3): Linear(in_features=2713, out_features=3, bias=True)
[2m[36m(train_graphs pid=374390)[0m )
[2m[36m(train_graphs pid=374377)[0m GAT(
[2m[36m(train_graphs pid=374377)[0m   (conv1): GATv2Conv(1, 8, heads=31)
[2m[36m(train_graphs pid=374377)[0m   (conv3): SAGEConv(248, 192)
[2m[36m(train_graphs pid=374377)[0m   (norm1): GraphNorm(248)
[2m[36m(train_graphs pid=374377)[0m   (fc1): Linear(in_features=384, out_features=3637, bias=True)
[2m[36m(train_graphs pid=374377)[0m   (fc2): Linear(in_features=3637, out_features=822, bias=True)
[2m[36m(train_graphs pid=374377)[0m   (fc3): Linear(in_features=822, out_features=3, bias=True)
[2m[36m(train_graphs pid=374377)[0m )
[2m[36m(train_graphs pid=374383)[0m GAT(
[2m[36m(train_graphs pid=374383)[0m   (conv1): GATv2Conv(1, 5, heads=20)
[2m[36m(train_graphs pid=374383)[0m   (conv3): SAGEConv(100, 479)
[2m[36m(train_graphs pid=374383)[0m   (norm1): GraphNorm(100)
[2m[36m(train_graphs pid=374383)[0m   (fc1): Linear(in_features=958, out_features=2462, bias=True)
[2m[36m(train_graphs pid=374383)[0m   (fc2): Linear(in_features=2462, out_features=1914, bias=True)
[2m[36m(train_graphs pid=374383)[0m   (fc3): Linear(in_features=1914, out_features=3, bias=True)
[2m[36m(train_graphs pid=374383)[0m )
[2m[36m(train_graphs pid=374379)[0m GAT(
[2m[36m(train_graphs pid=374379)[0m   (conv1): GATv2Conv(1, 4, heads=8)
[2m[36m(train_graphs pid=374379)[0m   (conv2): GATv2Conv(32, 32, heads=8)
[2m[36m(train_graphs pid=374379)[0m   (conv3): SAGEConv(32, 320)
[2m[36m(train_graphs pid=374379)[0m   (norm1): GraphNorm(32)
[2m[36m(train_graphs pid=374379)[0m   (fc1): Linear(in_features=640, out_features=2407, bias=True)
[2m[36m(train_graphs pid=374379)[0m   (fc2): Linear(in_features=2407, out_features=2869, bias=True)
[2m[36m(train_graphs pid=374379)[0m   (fc3): Linear(in_features=2869, out_features=3, bias=True)
[2m[36m(train_graphs pid=374379)[0m )
[2m[36m(train_graphs pid=374396)[0m GAT(
[2m[36m(train_graphs pid=374396)[0m   (conv1): GATv2Conv(1, 21, heads=22)
[2m[36m(train_graphs pid=374396)[0m   (conv2): GATv2Conv(462, 462, heads=22)
[2m[36m(train_graphs pid=374396)[0m   (conv3): SAGEConv(462, 508)
[2m[36m(train_graphs pid=374396)[0m   (norm1): GraphNorm(462)
[2m[36m(train_graphs pid=374396)[0m   (fc1): Linear(in_features=1016, out_features=505, bias=True)
[2m[36m(train_graphs pid=374396)[0m   (fc2): Linear(in_features=505, out_features=378, bias=True)
[2m[36m(train_graphs pid=374396)[0m   (fc3): Linear(in_features=378, out_features=3, bias=True)
[2m[36m(train_graphs pid=374396)[0m )
[2m[36m(train_graphs pid=374385)[0m GAT(
[2m[36m(train_graphs pid=374385)[0m   (conv1): GATv2Conv(1, 11, heads=13)
[2m[36m(train_graphs pid=374385)[0m   (conv2): GATv2Conv(143, 143, heads=13)
[2m[36m(train_graphs pid=374385)[0m   (conv3): SAGEConv(143, 460)
[2m[36m(train_graphs pid=374385)[0m   (norm1): GraphNorm(143)
[2m[36m(train_graphs pid=374385)[0m   (fc1): Linear(in_features=920, out_features=3422, bias=True)
[2m[36m(train_graphs pid=374385)[0m   (fc2): Linear(in_features=3422, out_features=1859, bias=True)
[2m[36m(train_graphs pid=374385)[0m   (fc3): Linear(in_features=1859, out_features=3, bias=True)
[2m[36m(train_graphs pid=374385)[0m )
[2m[36m(train_graphs pid=374402)[0m GAT(
[2m[36m(train_graphs pid=374402)[0m   (conv1): GATv2Conv(1, 12, heads=7)
[2m[36m(train_graphs pid=374402)[0m   (conv2): GATv2Conv(84, 84, heads=7)
[2m[36m(train_graphs pid=374402)[0m   (conv3): SAGEConv(84, 406)
[2m[36m(train_graphs pid=374402)[0m   (norm1): GraphNorm(84)
[2m[36m(train_graphs pid=374402)[0m   (fc1): Linear(in_features=812, out_features=2442, bias=True)
[2m[36m(train_graphs pid=374402)[0m   (fc2): Linear(in_features=2442, out_features=3139, bias=True)
[2m[36m(train_graphs pid=374402)[0m   (fc3): Linear(in_features=3139, out_features=3, bias=True)
[2m[36m(train_graphs pid=374402)[0m )
[2m[36m(train_graphs pid=374410)[0m GAT(
[2m[36m(train_graphs pid=374410)[0m   (conv1): GATv2Conv(1, 10, heads=5)
[2m[36m(train_graphs pid=374410)[0m   (conv3): SAGEConv(50, 149)
[2m[36m(train_graphs pid=374410)[0m   (norm1): GraphNorm(50)
[2m[36m(train_graphs pid=374410)[0m   (fc1): Linear(in_features=298, out_features=2831, bias=True)
[2m[36m(train_graphs pid=374410)[0m   (fc2): Linear(in_features=2831, out_features=2329, bias=True)
[2m[36m(train_graphs pid=374410)[0m   (fc3): Linear(in_features=2329, out_features=3, bias=True)
[2m[36m(train_graphs pid=374410)[0m )
[2m[36m(train_graphs pid=374406)[0m GAT(
[2m[36m(train_graphs pid=374406)[0m   (conv1): GATv2Conv(1, 21, heads=29)
[2m[36m(train_graphs pid=374406)[0m   (conv2): GATv2Conv(609, 609, heads=29)
[2m[36m(train_graphs pid=374406)[0m   (conv3): SAGEConv(609, 241)
[2m[36m(train_graphs pid=374406)[0m   (norm1): GraphNorm(609)
[2m[36m(train_graphs pid=374406)[0m   (fc1): Linear(in_features=482, out_features=3764, bias=True)
[2m[36m(train_graphs pid=374406)[0m   (fc2): Linear(in_features=3764, out_features=1510, bias=True)
[2m[36m(train_graphs pid=374406)[0m   (fc3): Linear(in_features=1510, out_features=3, bias=True)
[2m[36m(train_graphs pid=374406)[0m )
[2m[36m(train_graphs pid=374400)[0m GAT(
[2m[36m(train_graphs pid=374400)[0m   (conv1): GATv2Conv(1, 19, heads=25)
[2m[36m(train_graphs pid=374400)[0m   (conv2): GATv2Conv(475, 475, heads=25)
[2m[36m(train_graphs pid=374400)[0m   (conv3): SAGEConv(475, 365)
[2m[36m(train_graphs pid=374400)[0m   (norm1): GraphNorm(475)
[2m[36m(train_graphs pid=374400)[0m   (fc1): Linear(in_features=730, out_features=1025, bias=True)
[2m[36m(train_graphs pid=374400)[0m   (fc2): Linear(in_features=1025, out_features=3037, bias=True)
[2m[36m(train_graphs pid=374400)[0m   (fc3): Linear(in_features=3037, out_features=3, bias=True)
[2m[36m(train_graphs pid=374400)[0m )
== Status ==
Current time: 2022-05-16 13:28:35 (running for 00:00:05.20)
Memory usage on this node: 18.8/251.3 GiB
Using AsyncHyperBand: num_stopped=0
Bracket: Iter 640.000: None | Iter 160.000: None | Iter 40.000: None | Iter 10.000: None
Resources requested: 64.0/64 CPUs, 0/0 GPUs, 0.0/157.31 GiB heap, 0.0/71.41 GiB objects
…
+-----------------------+----------+----------------------+----------+-----------+----------------+----------+----------+-------------+-------------+--------------+-------+-----------+-----------+-----------+-----------+-----------+----------+----------+


[2m[36m(train_graphs pid=374421)[0m GAT(
[2m[36m(train_graphs pid=374421)[0m   (conv1): GATv2Conv(1, 14, heads=11)
[2m[36m(train_graphs pid=374421)[0m   (conv2): GATv2Conv(154, 154, heads=11)
[2m[36m(train_graphs pid=374421)[0m   (conv3): SAGEConv(154, 61)
[2m[36m(train_graphs pid=374421)[0m   (norm1): GraphNorm(154)
[2m[36m(train_graphs pid=374421)[0m   (fc1): Linear(in_features=122, out_features=3861, bias=True)
[2m[36m(train_graphs pid=374421)[0m   (fc2): Linear(in_features=3861, out_features=1022, bias=True)
[2m[36m(train_graphs pid=374421)[0m   (fc3): Linear(in_features=1022, out_features=3, bias=True)
[2m[36m(train_graphs pid=374421)[0m )
[2m[36m(train_graphs pid=374425)[0m GAT(
[2m[36m(train_graphs pid=374425)[0m   (conv1): GATv2Conv(1, 27, heads=17)
[2m[36m(train_graphs pid=374425)[0m   (conv3): SAGEConv(459, 139)
[2m[36m(train_graphs pid=374425)[0m   (norm1): GraphNorm(459)
[2m[36m(train_graphs pid=374425)[0m   (fc1): Linear(in_features=278, out_features=1937, bias=True)
[2m[36m(train_graphs pid=374425)[0m   (fc2): Linear(in_features=1937, out_features=2258, bias=True)
[2m[36m(train_graphs pid=374425)[0m   (fc3): Linear(in_features=2258, out_features=3, bias=True)
[2m[36m(train_graphs pid=374425)[0m )
[2m[36m(train_graphs pid=374414)[0m GAT(
[2m[36m(train_graphs pid=374414)[0m   (conv1): GATv2Conv(1, 26, heads=24)
[2m[36m(train_graphs pid=374414)[0m   (conv3): SAGEConv(624, 119)
[2m[36m(train_graphs pid=374414)[0m   (norm1): GraphNorm(624)
[2m[36m(train_graphs pid=374414)[0m   (fc1): Linear(in_features=238, out_features=1330, bias=True)
[2m[36m(train_graphs pid=374414)[0m   (fc2): Linear(in_features=1330, out_features=2877, bias=True)
[2m[36m(train_graphs pid=374414)[0m   (fc3): Linear(in_features=2877, out_features=3, bias=True)
[2m[36m(train_graphs pid=374414)[0m )
[2m[36m(train_graphs pid=374429)[0m GAT(
[2m[36m(train_graphs pid=374429)[0m   (conv1): GATv2Conv(1, 24, heads=2)
[2m[36m(train_graphs pid=374429)[0m   (conv2): GATv2Conv(48, 48, heads=2)
[2m[36m(train_graphs pid=374429)[0m   (conv3): SAGEConv(48, 327)
[2m[36m(train_graphs pid=374429)[0m   (norm1): GraphNorm(48)
[2m[36m(train_graphs pid=374429)[0m   (fc1): Linear(in_features=654, out_features=1868, bias=True)
[2m[36m(train_graphs pid=374429)[0m   (fc2): Linear(in_features=1868, out_features=2865, bias=True)
[2m[36m(train_graphs pid=374429)[0m   (fc3): Linear(in_features=2865, out_features=3, bias=True)
[2m[36m(train_graphs pid=374429)[0m )
[2m[36m(train_graphs pid=374427)[0m GAT(
[2m[36m(train_graphs pid=374427)[0m   (conv1): GATv2Conv(1, 13, heads=22)
[2m[36m(train_graphs pid=374427)[0m   (conv2): GATv2Conv(286, 286, heads=22)
[2m[36m(train_graphs pid=374427)[0m   (conv3): SAGEConv(286, 51)
[2m[36m(train_graphs pid=374427)[0m   (norm1): GraphNorm(286)
[2m[36m(train_graphs pid=374427)[0m   (fc1): Linear(in_features=102, out_features=2490, bias=True)
[2m[36m(train_graphs pid=374427)[0m   (fc2): Linear(in_features=2490, out_features=2973, bias=True)
[2m[36m(train_graphs pid=374427)[0m   (fc3): Linear(in_features=2973, out_features=3, bias=True)
[2m[36m(train_graphs pid=374427)[0m )
== Status ==
Current time: 2022-05-16 13:28:45 (running for 00:00:14.80)
Memory usage on this node: 22.3/251.3 GiB
Using AsyncHyperBand: num_stopped=0
Bracket: Iter 640.000: None | Iter 160.000: None | Iter 40.000: None | Iter 10.000: None
Resources requested: 64.0/64 CPUs, 0/0 GPUs, 0.0/157.31 GiB heap, 0.0/71.41 GiB objects
…
