…
| train_graphs_20b1057e | RUNNING  | 10.120.204.1:449144 | 3.84681 |   4.63095 |        3.23035 | 6.04364 | 5.88298 | 0.015323 | 7.65959e-08 | 0.138535 |           50 |     0 | 26.6781 |
+-----------------------+----------+---------------------+---------+-----------+----------------+---------+---------+----------+-------------+----------+--------------+-------+---------+


[2m[36m(train_graphs pid=449144)[0m GAT(
[2m[36m(train_graphs pid=449144)[0m   (conv1): GATv2Conv(1, 12, heads=18)
[2m[36m(train_graphs pid=449144)[0m   (conv2): GATv2Conv(216, 216, heads=18)
[2m[36m(train_graphs pid=449144)[0m   (conv3): SAGEConv(216, 246)
[2m[36m(train_graphs pid=449144)[0m   (norm1): GraphNorm(216)
[2m[36m(train_graphs pid=449144)[0m   (fc1): Linear(in_features=492, out_features=3094, bias=True)
[2m[36m(train_graphs pid=449144)[0m   (fc2): Linear(in_features=3094, out_features=3012, bias=True)
[2m[36m(train_graphs pid=449144)[0m   (fc3): Linear(in_features=3012, out_features=3, bias=True)
[2m[36m(train_graphs pid=449144)[0m )
[2m[36m(train_graphs pid=449208)[0m GAT(
[2m[36m(train_graphs pid=449208)[0m   (conv1): GATv2Conv(1, 10, heads=2)
[2m[36m(train_graphs pid=449208)[0m   (conv2): GATv2Conv(20, 20, heads=2)
[2m[36m(train_graphs pid=449208)[0m   (conv3): SAGEConv(20, 155)
[2m[36m(train_graphs pid=449208)[0m   (norm1): GraphNorm(20)
[2m[36m(train_graphs pid=449208)[0m   (fc1): Linear(in_features=310, out_features=777, bias=True)
[2m[36m(train_graphs pid=449208)[0m   (fc2): Linear(in_features=777, out_features=1416, bias=True)
[2m[36m(train_graphs pid=449208)[0m   (fc3): Linear(in_features=1416, out_features=3, bias=True)
[2m[36m(train_graphs pid=449208)[0m )
[2m[36m(train_graphs pid=449197)[0m GAT(
[2m[36m(train_graphs pid=449197)[0m   (conv1): GATv2Conv(1, 19, heads=19)
[2m[36m(train_graphs pid=449197)[0m   (conv2): GATv2Conv(361, 361, heads=19)
[2m[36m(train_graphs pid=449197)[0m   (conv3): SAGEConv(361, 437)
[2m[36m(train_graphs pid=449197)[0m   (norm1): GraphNorm(361)
[2m[36m(train_graphs pid=449197)[0m   (fc1): Linear(in_features=874, out_features=580, bias=True)
[2m[36m(train_graphs pid=449197)[0m   (fc2): Linear(in_features=580, out_features=2277, bias=True)
[2m[36m(train_graphs pid=449197)[0m   (fc3): Linear(in_features=2277, out_features=3, bias=True)
[2m[36m(train_graphs pid=449197)[0m )
[2m[36m(train_graphs pid=449185)[0m GAT(
[2m[36m(train_graphs pid=449185)[0m   (conv1): GATv2Conv(1, 27, heads=13)
[2m[36m(train_graphs pid=449185)[0m   (conv2): GATv2Conv(351, 351, heads=13)
[2m[36m(train_graphs pid=449185)[0m   (conv3): SAGEConv(351, 417)
[2m[36m(train_graphs pid=449185)[0m   (norm1): GraphNorm(351)
[2m[36m(train_graphs pid=449185)[0m   (fc1): Linear(in_features=834, out_features=3084, bias=True)
[2m[36m(train_graphs pid=449185)[0m   (fc2): Linear(in_features=3084, out_features=368, bias=True)
[2m[36m(train_graphs pid=449185)[0m   (fc3): Linear(in_features=368, out_features=3, bias=True)
[2m[36m(train_graphs pid=449185)[0m )
[2m[36m(train_graphs pid=449179)[0m GAT(
[2m[36m(train_graphs pid=449179)[0m   (conv1): GATv2Conv(1, 11, heads=2)
[2m[36m(train_graphs pid=449179)[0m   (conv2): GATv2Conv(22, 22, heads=2)
[2m[36m(train_graphs pid=449179)[0m   (conv3): SAGEConv(22, 308)
[2m[36m(train_graphs pid=449179)[0m   (norm1): GraphNorm(22)
[2m[36m(train_graphs pid=449179)[0m   (fc1): Linear(in_features=616, out_features=2413, bias=True)
[2m[36m(train_graphs pid=449179)[0m   (fc2): Linear(in_features=2413, out_features=1560, bias=True)
[2m[36m(train_graphs pid=449179)[0m   (fc3): Linear(in_features=1560, out_features=3, bias=True)
[2m[36m(train_graphs pid=449179)[0m )
[2m[36m(train_graphs pid=449189)[0m GAT(
[2m[36m(train_graphs pid=449189)[0m   (conv1): GATv2Conv(1, 9, heads=26)
[2m[36m(train_graphs pid=449189)[0m   (conv2): GATv2Conv(234, 234, heads=26)
[2m[36m(train_graphs pid=449189)[0m   (conv3): SAGEConv(234, 447)
[2m[36m(train_graphs pid=449189)[0m   (norm1): GraphNorm(234)
[2m[36m(train_graphs pid=449189)[0m   (fc1): Linear(in_features=894, out_features=3664, bias=True)
[2m[36m(train_graphs pid=449189)[0m   (fc2): Linear(in_features=3664, out_features=797, bias=True)
[2m[36m(train_graphs pid=449189)[0m   (fc3): Linear(in_features=797, out_features=3, bias=True)
[2m[36m(train_graphs pid=449189)[0m )
[2m[36m(train_graphs pid=449183)[0m GAT(
[2m[36m(train_graphs pid=449183)[0m   (conv1): GATv2Conv(1, 7, heads=26)
[2m[36m(train_graphs pid=449183)[0m   (conv2): GATv2Conv(182, 182, heads=26)
[2m[36m(train_graphs pid=449183)[0m   (conv3): SAGEConv(182, 455)
[2m[36m(train_graphs pid=449183)[0m   (norm1): GraphNorm(182)
[2m[36m(train_graphs pid=449183)[0m   (fc1): Linear(in_features=910, out_features=3859, bias=True)
[2m[36m(train_graphs pid=449183)[0m   (fc2): Linear(in_features=3859, out_features=1698, bias=True)
[2m[36m(train_graphs pid=449183)[0m   (fc3): Linear(in_features=1698, out_features=3, bias=True)
[2m[36m(train_graphs pid=449183)[0m )
[2m[36m(train_graphs pid=449216)[0m GAT(
[2m[36m(train_graphs pid=449216)[0m   (conv1): GATv2Conv(1, 7, heads=14)
[2m[36m(train_graphs pid=449216)[0m   (conv2): GATv2Conv(98, 98, heads=14)
[2m[36m(train_graphs pid=449216)[0m   (conv3): SAGEConv(98, 123)
[2m[36m(train_graphs pid=449216)[0m   (norm1): GraphNorm(98)
[2m[36m(train_graphs pid=449216)[0m   (fc1): Linear(in_features=246, out_features=1667, bias=True)
[2m[36m(train_graphs pid=449216)[0m   (fc2): Linear(in_features=1667, out_features=1195, bias=True)
[2m[36m(train_graphs pid=449216)[0m   (fc3): Linear(in_features=1195, out_features=3, bias=True)
[2m[36m(train_graphs pid=449216)[0m )
[2m[36m(train_graphs pid=449210)[0m GAT(
[2m[36m(train_graphs pid=449210)[0m   (conv1): GATv2Conv(1, 31, heads=5)
[2m[36m(train_graphs pid=449210)[0m   (conv2): GATv2Conv(155, 155, heads=5)
[2m[36m(train_graphs pid=449210)[0m   (conv3): SAGEConv(155, 189)
[2m[36m(train_graphs pid=449210)[0m   (norm1): GraphNorm(155)
[2m[36m(train_graphs pid=449210)[0m   (fc1): Linear(in_features=378, out_features=742, bias=True)
[2m[36m(train_graphs pid=449210)[0m   (fc2): Linear(in_features=742, out_features=351, bias=True)
[2m[36m(train_graphs pid=449210)[0m   (fc3): Linear(in_features=351, out_features=3, bias=True)
[2m[36m(train_graphs pid=449210)[0m )
[2m[36m(train_graphs pid=449177)[0m GAT(
[2m[36m(train_graphs pid=449177)[0m   (conv1): GATv2Conv(1, 13, heads=29)
[2m[36m(train_graphs pid=449177)[0m   (conv2): GATv2Conv(377, 377, heads=29)
[2m[36m(train_graphs pid=449177)[0m   (conv3): SAGEConv(377, 194)
[2m[36m(train_graphs pid=449177)[0m   (norm1): GraphNorm(377)
[2m[36m(train_graphs pid=449177)[0m   (fc1): Linear(in_features=388, out_features=3767, bias=True)
[2m[36m(train_graphs pid=449177)[0m   (fc2): Linear(in_features=3767, out_features=2635, bias=True)
[2m[36m(train_graphs pid=449177)[0m   (fc3): Linear(in_features=2635, out_features=3, bias=True)
[2m[36m(train_graphs pid=449177)[0m )
[2m[36m(train_graphs pid=449193)[0m GAT(
[2m[36m(train_graphs pid=449193)[0m   (conv1): GATv2Conv(1, 11, heads=4)
[2m[36m(train_graphs pid=449193)[0m   (conv2): GATv2Conv(44, 44, heads=4)
[2m[36m(train_graphs pid=449193)[0m   (conv3): SAGEConv(44, 35)
[2m[36m(train_graphs pid=449193)[0m   (norm1): GraphNorm(44)
[2m[36m(train_graphs pid=449193)[0m   (fc1): Linear(in_features=70, out_features=3914, bias=True)
[2m[36m(train_graphs pid=449193)[0m   (fc2): Linear(in_features=3914, out_features=3776, bias=True)
[2m[36m(train_graphs pid=449193)[0m   (fc3): Linear(in_features=3776, out_features=3, bias=True)
[2m[36m(train_graphs pid=449193)[0m )
[2m[36m(train_graphs pid=449220)[0m GAT(
[2m[36m(train_graphs pid=449220)[0m   (conv1): GATv2Conv(1, 18, heads=21)
[2m[36m(train_graphs pid=449220)[0m   (conv2): GATv2Conv(378, 378, heads=21)
[2m[36m(train_graphs pid=449220)[0m   (conv3): SAGEConv(378, 402)
[2m[36m(train_graphs pid=449220)[0m   (norm1): GraphNorm(378)
[2m[36m(train_graphs pid=449220)[0m   (fc1): Linear(in_features=804, out_features=544, bias=True)
[2m[36m(train_graphs pid=449220)[0m   (fc2): Linear(in_features=544, out_features=2356, bias=True)
[2m[36m(train_graphs pid=449220)[0m   (fc3): Linear(in_features=2356, out_features=3, bias=True)
[2m[36m(train_graphs pid=449220)[0m )
[2m[36m(train_graphs pid=449232)[0m GAT(
[2m[36m(train_graphs pid=449232)[0m   (conv1): GATv2Conv(1, 29, heads=3)
[2m[36m(train_graphs pid=449232)[0m   (conv2): GATv2Conv(87, 87, heads=3)
[2m[36m(train_graphs pid=449232)[0m   (conv3): SAGEConv(87, 325)
[2m[36m(train_graphs pid=449232)[0m   (norm1): GraphNorm(87)
[2m[36m(train_graphs pid=449232)[0m   (fc1): Linear(in_features=650, out_features=561, bias=True)
[2m[36m(train_graphs pid=449232)[0m   (fc2): Linear(in_features=561, out_features=3389, bias=True)
[2m[36m(train_graphs pid=449232)[0m   (fc3): Linear(in_features=3389, out_features=3, bias=True)
[2m[36m(train_graphs pid=449232)[0m )
[2m[36m(train_graphs pid=449204)[0m GAT(
[2m[36m(train_graphs pid=449204)[0m   (conv1): GATv2Conv(1, 26, heads=28)
[2m[36m(train_graphs pid=449204)[0m   (conv2): GATv2Conv(728, 728, heads=28)
[2m[36m(train_graphs pid=449204)[0m   (conv3): SAGEConv(728, 478)
[2m[36m(train_graphs pid=449204)[0m   (norm1): GraphNorm(728)
[2m[36m(train_graphs pid=449204)[0m   (fc1): Linear(in_features=956, out_features=865, bias=True)
[2m[36m(train_graphs pid=449204)[0m   (fc2): Linear(in_features=865, out_features=606, bias=True)
[2m[36m(train_graphs pid=449204)[0m   (fc3): Linear(in_features=606, out_features=3, bias=True)
[2m[36m(train_graphs pid=449204)[0m )
[2m[36m(train_graphs pid=449222)[0m GAT(
[2m[36m(train_graphs pid=449222)[0m   (conv1): GATv2Conv(1, 5, heads=3)
[2m[36m(train_graphs pid=449222)[0m   (conv2): GATv2Conv(15, 15, heads=3)
[2m[36m(train_graphs pid=449222)[0m   (conv3): SAGEConv(15, 113)
[2m[36m(train_graphs pid=449222)[0m   (norm1): GraphNorm(15)
[2m[36m(train_graphs pid=449222)[0m   (fc1): Linear(in_features=226, out_features=3946, bias=True)
[2m[36m(train_graphs pid=449222)[0m   (fc2): Linear(in_features=3946, out_features=3938, bias=True)
[2m[36m(train_graphs pid=449222)[0m   (fc3): Linear(in_features=3938, out_features=3, bias=True)
[2m[36m(train_graphs pid=449222)[0m )
[2m[36m(train_graphs pid=449228)[0m GAT(
[2m[36m(train_graphs pid=449228)[0m   (conv1): GATv2Conv(1, 21, heads=21)
[2m[36m(train_graphs pid=449228)[0m   (conv2): GATv2Conv(441, 441, heads=21)
[2m[36m(train_graphs pid=449228)[0m   (conv3): SAGEConv(441, 168)
[2m[36m(train_graphs pid=449228)[0m   (norm1): GraphNorm(441)
[2m[36m(train_graphs pid=449228)[0m   (fc1): Linear(in_features=336, out_features=3833, bias=True)
[2m[36m(train_graphs pid=449228)[0m   (fc2): Linear(in_features=3833, out_features=1090, bias=True)
[2m[36m(train_graphs pid=449228)[0m   (fc3): Linear(in_features=1090, out_features=3, bias=True)
[2m[36m(train_graphs pid=449228)[0m )
== Status ==
Current time: 2022-05-14 13:01:04 (running for 00:00:09.40)
Memory usage on this node: 13.3/251.3 GiB
Using AsyncHyperBand: num_stopped=0
Bracket: Iter 2.000: None | Iter 1.000: None
Resources requested: 64.0/64 CPUs, 0/0 GPUs, 0.0/162.92 GiB heap, 0.0/73.81 GiB objects
Result logdir: /home/uvi/ei/mfp/ray_results/train_graphs_2022-05-14_13-00-55
…
